BioPredictMID/app/src/main/assets/MIDTERM_linear.tflite (tflite, 19792 bytes, 5 tensors)

arith.constant f4 [1, 64]
000000 d2 e6 6b 3e 8c 91 33 bd ef 6d 8b 3d d8 10 ca bd
       0.2303727 -0.043839976 0.068080775 -0.09866494
000010 3c 44 fe 3d 22 19 de bd 64 0d 79 3e a1 4b 84 3e
       0.124153584 -0.108446375 0.24321514 0.2583895
000020 0b 79 b6 3d 0c d2 06 3e 9d a1 83 be c0 a4 a6 bd
       0.08909806 0.13166064 -0.2570924 -0.08136892
000030 e0 19 20 be db 62 22 be 37 83 31 bd 93 c8 8c be
       -0.1563487 -0.15858023 -0.043338027 -0.27496776
000040 86 92 31 3e b6 e2 92 3e b8 47 70 3e 25 5d f0 3d
       0.1734105 0.28688592 0.23464859 0.11736516
000050 02 36 8c 3e 03 46 94 3e 3d 2b 87 3e 94 ee b1 3c
       0.27384955 0.28959665 0.26400176 0.021720208
000060 fa 5d 7a 3d 7a 14 0d be 95 24 a4 3e d7 62 9a 3e
       0.06112478 -0.13777342 0.3205916 0.30153534
000070 6c 6e 1d 3e 75 ad e2 3d cf 1e 28 3e 29 31 45 3e
       0.15374154 0.110682406 0.16418003 0.19257034
000080 7a c5 d4 bc 28 92 9e 3e 50 da 48 3e fa e1 7a 3e
       -0.02597307 0.30970883 0.1961453 0.24500266
000090 35 01 6d be f4 fc 89 3e d7 3a 62 3d c9 4b dc 3d
       -0.23144992 0.269508 0.055231895 0.10756642
0000a0 23 3c ab bd e4 da a6 3e cc 4b 80 3d ad 5d 03 bc
       -0.083610795 0.32588875 0.06264457 -0.0080179395
0000b0 f3 b3 61 3e 87 7d 8e 3e 47 36 01 be 3c ec 6d be
       0.22041301 0.27830145 -0.12618361 -0.23234648
0000c0 b8 52 a9 3d 50 ed 80 3e 8e 14 81 3e 47 8c 88 3e
       0.082677305 0.25181055 0.25210994 0.26669523
0000d0 9f 18 34 3e 8b d9 cc be fd df ab 3e e4 5c 18 bd
       0.17587517 -0.40009722 0.33569327 -0.037197962
0000e0 32 90 2d be 27 8b d8 bd 17 66 d4 bd 55 38 6f 3e
       -0.16949537 -0.10573416 -0.103710346 0.23361333
0000f0 27 80 a0 3e a0 bb 87 3e 31 ce 3c be 38 48 99 3e
       0.31347772 0.26510334 -0.18438031 0.2993791

arith.constant1 f4 [64, 64]
000000 b3 41 b2 bb 39 81 2e 3e 88 1a b3 bc 99 87 3d bd
       -0.005439961 0.17041482 -0.021863237 -0.046271894
000010 2e f0 40 be b7 5d 0f 3d 59 15 a9 bd d4 d4 f2 bd
       -0.18841621 0.035001483 -0.08256025 -0.11857
000020 84 0e 95 be 63 1d 07 be de f6 5e bd c0 0e b5 3c
       -0.29112637 -0.13194804 -0.05443465 0.02210176
000030 f9 3a b5 be 8f 09 bd bd 62 cd 46 be 9f 4e 92 bc
       -0.35396555 -0.09230339 -0.19414285 -0.017859755
000040 f5 b1 90 3c 89 c2 40 be 1f c8 50 3e 7c f2 67 be
       0.017662982 -0.1882421 0.2038884 -0.22651094
000050 20 8b 6a be 2a 7e 74 bc ff d2 4c 3e 72 69 9a 3d
       -0.22904634 -0.014922658 0.20002364 0.07539643
000060 84 bc 21 be a0 fa 78 bc cd 10 76 bd 31 39 74 3e
       -0.15794569 -0.015196472 -0.060074616 0.23849942
000070 a6 fe 0f be c6 4a 86 3c fb ab 51 3e 5a 2e 12 3e
       -0.14061984 0.016393077 0.20475762 0.14275494
000080 b4 21 08 be 4d 75 aa 3d 1b 49 80 be 0d 29 eb 3d
       -0.13294107 0.083231546 -0.25055775 0.11482439
000090 3c 49 2f 3e 75 38 c7 3d 35 4a 54 be 26 55 4f be
       0.1711778 0.09727565 -0.20731433 -0.20247325
0000a0 35 92 28 3d e4 aa c6 3c 2e 59 14 be a0 91 6e 3c
       0.04115506 0.024251409 -0.14487144 0.014561087
0000b0 e4 f8 65 3e 98 47 f4 3c 1d 1a 0e be dd c6 32 3e
       0.22458225 0.029819295 -0.13877149 0.17458673
0000c0 6e b0 12 3e fa 4d b8 be 94 e4 1e be d2 b3 87 bd
       0.14325115 -0.3599699 -0.15516883 -0.06626095
0000d0 51 6f 28 3e 2c 9a 81 bd ff 9a e8 bd eb 3a f0 bd
       0.16448714 -0.06328234 -0.11357688 -0.11729988
0000e0 5a cb 2b 3d 3c 64 db bd 85 86 42 be 2a 02 e8 bd
       0.041941978 -0.107124776 -0.18996628 -0.11328538
0000f0 28 5f ea 3b dc ff 1f bd 7a 7d d9 bd 81 73 f3 3d
       0.007152457 -0.039062366 -0.10619636 0.11887265
000100 a9 a7 11 be 94 ff 19 be 52 5f 2a bd 61 41 e7 bd
       -0.14224114 -0.15038902 -0.04159481 -0.11291767
000110 cf ad 7a 3d d5 72 eb bd 5c 95 5c be c9 6c f4 3d
       0.061200913 -0.11496512 -0.21541351 0.119348116
000120 13 19 fa bd b0 f5 70 3c 4a 7f 51 be 61 66 bd bd
       -0.12211814 0.014707014 -0.20458713 -0.09248043
000130 30 77 0c bd 74 a6 75 bd c0 08 e5 3d 28 04 ad bd
       -0.034293354 -0.059973195 0.111833096 -0.08448058
000140 e1 1d 26 bd b7 a9 3c 3e c6 d4 49 bd 0d be b6 bc
       -0.04055584 0.18424116 -0.049275182 -0.02230742
000150 89 3e b6 3d fb ee b7 3d 5f 66 14 3e f6 da 2c be
       0.088986464 0.08981129 0.14492176 -0.16880402
000160 40 b3 82 3e 0e 43 f2 bd 50 91 87 3d 4f 86 5d be
       0.25527382 -0.11829196 0.06619513 -0.21633266
000170 ad ad 8d bd f5 94 e4 3d e0 6e f4 3c 26 a5 40 3d
       -0.06917892 0.11161224 0.029838026 0.047032498
000180 cd 2c 2b be 6d b1 2d bd f5 5c 45 3e 6e 60 51 bd
       -0.16716309 -0.042405535 0.19273742 -0.051117353
000190 74 8e 6e be 58 e7 83 bd 63 28 66 be 12 26 2c 3c
       -0.23296529 -0.0644061 -0.22476344 0.010507124
0001a0 b9 b7 06 bd a3 84 7b be f9 99 05 3e 68 0b 52 be
       -0.032890055 -0.24562316 0.13047017 -0.20512164
0001b0 43 d9 fb 3d 6b 1b 0f 3e 11 29 47 3e 7c 71 c3 3d
       0.12297299 0.13975303 0.1944926 0.0954313
0001c0 59 a9 8d bd d7 ae e6 bd 35 6b 06 be 9a d0 c3 3d
       -0.06917066 -0.11263817 -0.13126834 0.09561272
0001d0 21 9e 59 be 06 bd 34 be ca 8a 60 3e b5 49 e8 3d
       -0.21251728 -0.17650232 0.21927944 0.113421835
0001e0 ca ce 79 3c b9 4a 14 3e 46 f0 4a 3e b9 85 59 3e
       0.015247056 0.1448163 0.1981822 0.21242417
0001f0 03 f6 8a be 2c db 20 3d e7 84 70 3d 8d c4 39 3e
       -0.27140817 0.03927152 0.058720496 0.18141384
000200 36 c1 47 3e f3 06 7d be 9c dd 99 bd c2 8c 74 3d
       0.19507298 -0.24709682 -0.07512972 0.05970455
000210 5d 54 da 3c ac ad f0 bd 17 e9 4d 3e e4 a7 16 3e
       0.026651556 -0.11751875 0.20108448 0.14712483
000220 11 c6 6d 3d 89 4e d2 3d 3a a5 d5 3b d4 f2 94 bd
       0.05805022 0.10268886 0.0065199407 -0.07272878
000230 ad eb b6 bd 77 ca 70 bd c3 64 81 bd 7c 84 9c bd
       -0.0893167 -0.058786836 -0.06318047 -0.07642457
000240 a1 43 05 be c6 63 8a bc 66 79 d7 bd b8 76 03 bd
       -0.1301408 -0.016893279 -0.10521202 -0.03209564
000250 f8 b1 26 be 9a 32 47 bc 36 d1 dd 3d fe 30 5f 3d
       -0.16278827 -0.01215806 0.108309194 0.054490082
000260 0f c5 70 3d 16 83 ff bd 8b 6a 4f bd 16 c5 01 3e
       0.05878168 -0.124761745 -0.050638717 0.12672839
000270 97 8e 33 3d d4 85 88 be 59 30 dc bd 9e 13 db bc
       0.043837156 -0.26664603 -0.10751409 -0.026742753
000280 1d 57 ae 3d cb 33 80 bc 99 eb 64 be e8 c4 36 be
       0.08512709 -0.015649697 -0.22355498 -0.17848551
000290 f6 7f 33 3e 99 65 2a bd 7d c3 55 be 44 6c 73 be
       0.17529282 -0.041600797 -0.20875354 -0.23771769
0002a0 c1 b6 ca 3d 97 8d cc bd 21 cb 0b bd 98 20 59 bd
       0.09898139 -0.099879436 -0.034129266 -0.0530096
0002b0 5c 72 72 3d 2a 7e b3 3d 10 d9 3c bd 17 f3 80 3d
       0.059191093 0.08764298 -0.046105444 0.06296366
0002c0 f4 08 78 3d ee 56 1a 3e e5 2a 0f 3e c5 cf 87 3e
       0.060555413 0.15072224 0.13981207 0.26525703
0002d0 6e bd 7c 3e dd f3 f6 bc 49 80 7b be ef 22 05 3e
       0.24681637 -0.03014558 -0.24560656 0.13001607
0002e0 7b 94 07 be ce 8b f8 bd 80 2c 9d 3c 89 1a 88 3d
       -0.13240235 -0.12136041 0.019186258 0.06645686
0002f0 aa e6 31 be 84 48 13 3d fc 48 85 be e0 83 30 be
       -0.17373148 0.03595783 -0.26032245 -0.17237806
000300 e7 21 e7 bc 06 14 10 be 1f 1b d1 bd 89 bd 27 bd
       -0.028214408 -0.14070138 -0.10210251 -0.04095224
000310 1a 8c c2 bd dc 9a e8 bd e7 dd 84 bd 81 74 80 3d
       -0.094993785 -0.11357662 -0.06487637 0.06272221
000320 8e 1a 43 be 78 99 3c be 5c d1 0b be 9e 71 c0 3d
       -0.19053099 -0.18417919 -0.13654083 0.09396671
000330 eb 66 92 3e 9d 9e 8b 3d c7 dd d1 3c 43 bf de 3c
       0.28594145 0.068173625 0.025618447 0.02719081
000340 80 56 34 3e e8 f5 88 3e 67 47 8e 3d 51 48 ba 3a
       0.17611122 0.26750112 0.06947213 0.0014212226
000350 70 6b 07 3d f7 f0 6e 3d e8 ae eb bc 69 f4 fc bc
       0.033061445 0.05833527 -0.028769925 -0.030878263
000360 32 55 47 3d 62 9c ab 3d 28 78 2f be 13 db 0e 3e
       0.048665233 0.08379437 -0.1713568 0.13950758
000370 c4 50 87 3d b4 4c 95 bd a7 58 1f be d5 2a c0 3d
       0.06607202 -0.072900206 -0.15561162 0.093831696
000380 50 50 f8 3d e6 10 14 be ff 79 ff bd 7f 04 df bd
       0.121246934 -0.14459571 -0.12474441 -0.108895294
000390 73 23 08 3e e1 48 0d be 14 fb 75 bd 20 d8 a5 3d
       0.13294773 -0.13797332 -0.0600539 0.08097863
0003a0 ef c1 97 bc 96 d4 20 3e 6c a9 78 bd a4 f2 58 be
       -0.018525092 0.15706095 -0.06070845 -0.2118631
0003b0 8a cd 6f be 2e 27 3e be de 2e 34 be 38 7f 41 be
       -0.2341825 -0.18569633 -0.17596003 -0.18896186
0003c0 69 d9 c9 3c 68 f3 23 bc f6 f4 8a 3d cb 0e 0e bd
       0.024639802 -0.010006763 0.06785004 -0.034682076
0003d0 e7 ab 55 be 52 ca 59 be af 49 30 be 30 b1 50 be
       -0.20866357 -0.21268585 -0.17215608 -0.20380092
0003e0 cc 3b dc 3d 64 1a dd bd aa 61 4b be 9f 48 0d 3e
       0.10753593 -0.10796049 -0.19861475 0.13797234
0003f0 77 5d 1c be 81 63 ce bd 13 c2 6e be 38 f2 28 be
       -0.15270029 -0.100775726 -0.23316221 -0.16498649

arith.constant3 f4 [64]
000000 ec e7 1d 3d 59 19 0a bd d0 e1 3d bd 74 0f 41 bd
       0.038551256 -0.03371558 -0.04635793 -0.047133878
000010 a4 a6 f0 3b 63 90 80 bd c8 45 75 3d dd bc 64 3d
       0.007344084 -0.062775396 0.059881 0.055844177
000020 86 87 2d 3c 62 76 09 3d 26 61 f7 bc 0f b3 54 bc
       0.010591393 0.033560164 -0.030197691 -0.012982144
000030 6d a9 27 bd 07 25 36 bd b7 88 52 bd 09 96 12 bd
       -0.04093306 -0.044468906 -0.051399913 -0.035787616
000040 4b fe af 3c 37 cc 0c 3d 42 90 5e 3d ac 31 63 3d
       0.021483561 0.034374442 0.054336794 0.055467293
000050 d2 97 68 3d 79 fe c6 3d 30 2e 5a 3d 54 f8 3b bd
       0.056785412 0.097165056 0.053266704 -0.04589112
000060 71 f0 84 3c e3 2f b5 bc 78 27 90 3d d4 72 a2 3c
       0.016227933 -0.02211756 0.07038778 0.019830145
000070 a0 d3 6e 3d 1b 06 68 3d 6b 83 69 3d 92 9a 0e 3d
       0.05830729 0.056646448 0.057010096 0.03481538
000080 e4 da 05 bd c4 c7 eb 3d cf 70 30 3d 7f ba 67 3d
       -0.032679453 0.11512712 0.043076333 0.05657434
000090 0b bd 92 bc a3 4b 21 3c 20 b1 47 3d dd 8b 67 3d
       -0.017912408 0.009844693 0.048752904 0.05652987
0000a0 4e 92 22 bd 18 26 cf 3d 0a 99 28 3d 94 a7 05 bd
       -0.03969031 0.10114688 0.041161574 -0.032630518
0000b0 cd 53 94 3c d4 7d f9 3c e0 81 83 bd cc 04 cf bc
       0.018106366 0.030455507 -0.06421256 -0.025270842
0000c0 af 4b 4c 3d 5d 35 32 3c d4 d4 0c 3e 2b 3b 44 3d
       0.049876865 0.010876981 0.13753062 0.04790799
0000d0 9a 0e 77 3b 5f ea 57 bd 2d f2 a4 3d db 70 36 bd
       0.0037697912 -0.052713748 0.08054004 -0.04454122
0000e0 f7 27 15 bd 16 2f e9 bc 73 7e db bc 8b d0 a9 3c
       -0.036415067 -0.028464835 -0.026793694 0.020729324
0000f0 db 92 59 3d b5 30 7e 3d bf 0b 15 bd 44 0f 3e 3d
       0.053118568 0.06205817 -0.036388155 0.046401277

sequential_2_1/dense_6_1/Add/ReadVariableOp f4 [64]
000000 5e a5 4f bd c7 62 87 bd 81 8a 9c bc 2e 06 fb bc
       -0.050694816 -0.06610637 -0.019109013 -0.030642595
000010 81 ed c4 bd 3e ea a4 bd 4c a6 eb bd 3b 26 22 bd
       -0.09615613 -0.08052491 -0.11506328 -0.03958724
000020 44 dd e8 3b f7 43 6c bd da cd 55 bb 00 00 00 00
       0.007106455 -0.057682004 -0.0032623918 0.0
000030 c6 a5 66 3d e8 9b cd bd df e1 a8 3d 0c 15 6e bd
       0.056310438 -0.100395024 0.082462065 -0.05812554
000040 22 29 df bd d0 60 33 3b f4 32 b4 bd 64 99 fd ba
       -0.10896517 0.0027370937 -0.08798781 -0.0019348082
000050 98 74 3a bd 3f ce 05 be 00 00 00 00 9d 4b 8f bc
       -0.04552135 -0.13066958 0.0 -0.01749211
000060 de 4c 43 3b 00 00 00 00 11 fa bb bc 47 2b 47 bd
       0.0029800455 0.0 -0.02294639 -0.048625257
000070 c2 cb 0f 3d 37 56 c2 bc 00 00 00 00 20 fd bf bd
       0.035106428 -0.023722751 0.0 -0.09374452
000080 a5 bc ee bc c2 b9 da bd 6c 9d e0 3c 37 0d 59 bd
       -0.029142687 -0.10679962 0.027418815 -0.05299112
000090 88 2c 52 bd 19 e3 ce bd da 8a 00 bd 14 b6 92 3c
       -0.051312 -0.10101909 -0.03138242 0.017909087
0000a0 b3 48 16 bd b6 86 95 bd 6f 05 70 bd 00 00 00 00
       -0.036690425 -0.07301085 -0.058598932 0.0
0000b0 e3 31 8c bd 00 00 00 00 00 00 00 00 1e a9 5b bc
       -0.06845453 0.0 0.0 -0.01340702
0000c0 d7 27 42 bd a4 bc 0b 3a 00 00 00 00 71 31 37 bc
       -0.047401275 0.0005330539 0.0 -0.011181221
0000d0 44 83 9e bd dc 0e 7d bc c9 2e bd 3d ab 64 aa bd
       -0.07739881 -0.015445437 0.09237439 -0.08319982
0000e0 a2 e7 66 bd 00 00 00 00 ae db 8c bd 07 77 c6 bb
       -0.056373246 0.0 -0.06877838 -0.0060566696
0000f0 a1 67 f8 bc 00 00 00 00 74 5a c1 bd 3c f7 e2 bd
       -0.030322852 0.0 -0.09441081 -0.110823125

sequential_2_1/dense_6_1/MatMul f4 [64, 3]
000000 fe 20 92 3e de 0c 01 3d b9 86 6c be a4 4a a9 3d
       0.28540796 0.03150641 -0.23098268 0.0826619
000010 16 89 9d 3b 50 73 9f 3d 68 ac 86 be 77 e0 f3 bd
       0.0048076017 0.07785666 -0.2630341 -0.11908048
000020 44 18 10 3e 45 7f 1e 3d 41 f0 18 bd c8 ce 19 3e
       0.14071757 0.038695592 -0.0373385 0.15020287
000030 fc f6 34 3e c9 3f 9f bd 06 9b 25 3d 79 85 ab bb
       0.17672342 -0.07775838 0.040431045 -0.005234417
000040 45 f6 9d bd 2b 4a 77 3e 3b b0 1c 3e 20 25 b1 bc
       -0.07712988 0.24149387 0.15301602 -0.021624148
000050 a5 c7 ec 3d 6d da 03 bb b8 b3 6c 3c 3e 5c 15 3e
       0.11561517 -0.0020119206 0.014447145 0.14585969
000060 18 4b 67 be 4c bd 23 be 34 e8 3c 3e 8a d9 45 3e
       -0.2258724 -0.1599018 0.18447953 0.19321266
000070 b2 ea 63 3e 4a 19 21 be 8a 8b 17 3e d9 51 17 be
       0.22257498 -0.15732303 0.14799324 -0.14777316
000080 a5 58 c3 be 2c ac 5d be 10 93 be bc b8 57 68 bd
       -0.38153568 -0.2164771 -0.023263484 -0.05672428
000090 61 43 5e be 19 0b b3 3e 48 3a 45 bd 7e ef 8b 3e
       -0.2170539 0.34969404 -0.048151284 0.27331156
0000a0 55 6b 0e bc 5a 4f 4d bc 48 41 06 bd 55 f2 36 3e
       -0.008692582 -0.012531126 -0.0327771 0.1786588
0000b0 ee 8d 15 be d4 2f f4 3d fc a9 74 bd 78 90 7a 3c
       -0.14604923 0.11923185 -0.059732422 0.015293233
0000c0 52 a7 2b 3e 75 20 36 3d 66 e3 60 3d 72 e6 2d be
       0.16763046 0.044464547 0.054904364 -0.16982439
0000d0 81 ab 82 3e ea 99 05 3d 6b 99 12 3e 1d 86 0c 3e
       0.25521472 0.032617487 0.14316337 0.13723035
0000e0 83 58 61 3e a4 4c 60 be 0f d0 24 3e c2 00 22 3e
       0.22006421 -0.21904236 0.16094993 0.15820602
0000f0 3f 35 57 be 49 96 95 3e a9 88 3c 3e b1 da 38 3e
       -0.21016406 0.2921622 0.18411507 0.18052174
000100 09 25 de bb 27 35 cb 3d ab 93 01 be f7 5f 65 be
       -0.0067793173 0.099222474 -0.12653987 -0.22399889
000110 ca b9 40 be a6 54 1b 3d 4e 86 68 bc 90 40 99 3e
       -0.18820873 0.037922524 -0.014192177 0.2993207
000120 20 bc 5b be d0 40 8e 3e 3d c0 29 3d 20 43 96 be
       -0.21458483 0.27783823 0.0414431 -0.29348087
000130 ce 0a 8c be dc 43 92 be f9 2c 7c 3e d9 6f 0d 3e
       -0.27351993 -0.28567398 0.2462653 0.13812198
000140 31 05 83 bd c2 ae 61 3e a2 40 89 bd 5e fb 6a be
       -0.063974746 0.22039321 -0.06701781 -0.22947451
000150 0d 66 49 be 40 bb 52 be d1 82 f7 3d a8 d0 84 bd
       -0.19667836 -0.20579243 0.12085498 -0.064851105
000160 6b 87 50 3d b7 78 85 3e d8 65 e7 bd 80 61 8a bb
       0.050910395 0.2606866 -0.11298722 -0.0042230487
000170 92 4c 6c be 42 33 d1 3d 95 8a 5b be 1d b4 0e 3e
       -0.23076084 0.10214855 -0.21439584 0.13935895
000180 64 53 c2 3e 4a 83 4f be 1d d4 9f 3e 2b 29 6a 3e
       0.37954247 -0.20264927 0.31216517 0.22867267
000190 49 a1 1d be 50 a4 d1 3c 76 a0 39 3d 75 5c 84 3e
       -0.15393557 0.025591046 0.045319043 0.2585179
0001a0 64 d1 a2 be 16 ca 62 3e 36 ec 36 3e 12 d1 cb bd
       -0.31800377 0.22147402 0.17863545 -0.09951986
0001b0 b4 c2 48 3e 27 ea 18 be 6f 42 bd 3e 7b 57 38 3d
       0.19605523 -0.14933072 0.36964747 0.045005303
0001c0 66 f6 e0 bc 93 92 6d 3e 61 ae 65 be 2f 9a 16 bd
       -0.027461242 0.23200445 -0.22429802 -0.036768135
0001d0 16 b2 0b 3e 72 7b 94 be f1 8a c3 3d 38 c0 ef 3d
       0.13642153 -0.2900043 0.09547985 0.11706585
0001e0 15 81 61 3e 1d da 02 be 4e 7d 42 3d 49 5f 1e 3e
       0.22021897 -0.12778516 0.04748278 0.15466036
0001f0 04 5e 40 be ad c3 e8 bd 8f d4 8e 3e e7 f0 a6 3c
       -0.18785864 -0.11365447 0.27896544 0.020378543
000200 83 19 24 3e 45 8e 68 be d4 10 6a be 00 cd 14 bd
       0.16025357 -0.22710522 -0.22857982 -0.036328316
000210 e2 47 6f 3e 73 f5 cf 3d c9 a7 e4 3c 10 c6 86 bc
       0.23367265 0.101542376 0.027912037 -0.016451865
000220 65 38 12 be 2a e3 45 be 40 85 d8 bc 14 9e 9c 3d
       -0.14279325 -0.19324937 -0.026430726 0.076473385
000230 17 11 87 be ff 84 ce 3c 04 d4 f1 3d 1c 03 a5 3d
       -0.26380226 0.025209902 0.11808017 0.08057234
000240 04 c7 dd 3c 64 e6 89 bd f7 de 73 3e d3 e9 78 be
       0.027072437 -0.06733397 0.23815523 -0.24307947
000250 7c 40 3a be 0a 12 f3 3d 1c 30 65 bd 70 4b 83 bd
       -0.18188661 0.11868675 -0.055954084 -0.06410873
000260 f2 e9 8c be 35 01 a5 3b 8d f4 5f b8 d0 9b 01 3e
       -0.27522236 0.0050355443 -5.33951e-05 0.12657094
000270 b4 0a 94 3c 6f 40 ea bd b7 6b 5b 3e 63 8a 1d be
       0.01807151 -0.11438071 0.21427809 -0.15384822
000280 e4 cb b9 bd 45 64 9f 3e 97 57 05 bd 4c 0d 86 3e
       -0.09072092 0.31131187 -0.032554235 0.2618202
000290 a3 2c 4f be 7a e0 52 3c 49 5b 13 bd 1f 8a 67 3e
       -0.20231871 0.012870902 -0.03597573 0.22611283
0002a0 64 fd 31 3d 20 26 82 3e 25 07 23 3e ac 63 97 bd
       0.043454543 0.25419712 0.15920694 -0.07392058
0002b0 5a 0f dc bd e6 c4 90 be 70 54 92 3d 85 37 89 3d
       -0.107451156 -0.28275222 0.071450114 0.06700043
0002c0 31 bb ac 3d 56 cc d4 bd 2c 10 33 3e d9 c2 31 3d
       0.084341414 -0.103905365 0.17486638 0.04339871
0002d0 02 93 fc 3b fb 45 fb bd 68 10 44 3e a9 f0 41 be
       0.0077079544 -0.12269207 0.19146883 -0.18939461
0002e0 bc 23 83 be 5a fd 28 be 64 ce 6d 3e 5a bf b9 3c
       -0.256132 -0.16502896 0.23223263 0.022674251
0002f0 68 b7 e2 bd 8c 7d 42 3d d5 0d 18 3e 3b e8 79 3e
       -0.11070138 0.047483012 0.14849027 0.24404995
